…
se(5, activation='softmax')\n","    ]\n",")\n","\n","\n","model.build(input_shape=input_shape)\n"]},{"cell_type":"code","execution_count":null,"metadata":{"colab":{"base_uri":"https://localhost:8080/"},"id":"fHhtsEq8i33H","outputId":"2c916ec2-4354-4416-bb6e-5e9958f1cd5a"},"outputs":[{"name":"stdout","output_type":"stream","text":["Model: \"sequential_2\"\n","_________________________________________________________________\n"," Layer (type)                Output Shape              Param #   \n","=================================================================\n"," conv2d (Conv2D)             (None, 227, 227, 64)      1792      \n","                                                                 \n"," conv2d_1 (Conv2D)           (None, 227, 227, 64)      36928     \n","                                                                 \n"," max_pooling2d (MaxPooling2D  (None, 113, 113, 64)     0         \n"," )                                                               \n","                                                                 \n"," conv2d_2 (Conv2D)           (None, 113, 113, 128)     73856     \n","                                                                 \n"," conv2d_3 (Conv2D)           (None, 113, 113, 128)     147584    \n","                                                                 \n"," max_pooling2d_1 (MaxPooling  (None, 56, 56, 128)      0         \n"," 2D)                                                             \n","                                                                 \n"," conv2d_4 (Conv2D)           (None, 56, 56, 256)       295168    \n","                                                                 \n"," conv2d_5 (Conv2D)           (None, 56, 56, 256)       590080    \n","                                                                 \n"," conv2d_6 (Conv2D)           (None, 56, 56, 256)       590080    \n","                                                                 \n"," max_pooling2d_2 (MaxPooling  (None, 28, 28, 256)      0         \n"," 2D)                                                             \n","                                                                 \n"," conv2d_7 (Conv2D)           (None, 28, 28, 512)       1180160   \n","                                                                 \n"," conv2d_8 (Conv2D)           (None, 28, 28, 512)       2359808   \n","                                                                 \n"," conv2d_9 (Conv2D)           (None, 28, 28, 512)       2359808   \n","                                                                 \n"," max_pooling2d_3 (MaxPooling  (None, 14, 14, 512)      0         \n"," 2D)                                                             \n","                                                                 \n"," conv2d_10 (Conv2D)          (None, 14, 14, 512)       2359808   \n","                                                                 \n"," conv2d_11 (Conv2D)          (None, 14, 14, 512)       2359808   \n","                                                                 \n"," conv2d_12 (Conv2D)          (None, 14, 14, 512)       2359808   \n","                                                                 \n"," max_pooling2d_4 (MaxPooling  (None, 7, 7, 512)        0         \n"," 2D)                                                             \n","                                                                 \n"," flatten (Flatten)           (None, 25088)             0         \n","                                                                 \n"," dense (Dense)               (None, 4096)              102764544 \n","                                                                 \n"," dropout (Dropout)           (None, 4096)              0         \n","                                                                 \n"," dense_1 (Dense)             (None, 4096)              16781312  \n","                                                                 \n"," dropout_1 (Dropout)         (None, 4096)              0         \n","                                                                 \n"," dense_2 (Dense)             (None, 5)                 20485     \n","                                                                 \n","=================================================================\n","Total params: 134,281,029\n","Trainable params: 134,281,029\n","Non-trainable params: 0\n","_________________________________________________________________\n"]}],"source":["model.summary()"]},{"cell_type":"markdown","metadata":{"id":"COt6q9Tmi33I"}
…
